…
[1;32mLoading:[0m  TTJ_anti                                 et-NOMINAL_ntuple_TT.root
Entries in DF before modification: 33582
[1;32mLoading:[0m  VVL_anti                                 et-NOMINAL_ntuple_VV.root
Entries in DF before modification: 1712
Combining for fraction training
Time Diff: 
663.191553116
Handling data for training...
Using keras 2.1.1
Training new model
Loading Training set
debug target_names
0
tt
1
w
2
qcd
3
real
-1
none
_________________________________________________________________
Layer (type)                 Output Shape              Param #   
=================================================================
dense_1 (Dense)              (None, 200)               4400      
_________________________________________________________________
activation_1 (Activation)    (None, 200)               0         
_________________________________________________________________
alpha_dropout_1 (AlphaDropou (None, 200)               0         
_________________________________________________________________
dense_2 (Dense)              (None, 200)               40200     
_________________________________________________________________
activation_2 (Activation)    (None, 200)               0         
_________________________________________________________________
alpha_dropout_2 (AlphaDropou (None, 200)               0         
_________________________________________________________________
dense_3 (Dense)              (None, 4)      2019-08-15 22:01:25.615386: W tensorflow/core/platform/cpu_feature_guard.cc:45] The TensorFlow library wasn't compiled to use SSE4.1 instructions, but these are available on your machine and could speed up CPU computations.
           804       
_________________________________________________________________
activation_3 (Activation)    (None, 4)                 0         
=================================================================
Total params: 45,404
Trainable params: 45,404
Non-trainable params: 0
_________________________________________________________________
Train on 62364 samples, validate on 20788 samples
Epoch 1/100000

  100/62364 [..............................] - ETA: 10:42 - loss: 4.6307 - categorical_accuracy: 0.2200
  700/62364 [..............................] - ETA: 1:35 - loss: 5.1395 - categorical_accuracy: 0.2300 
…
61600/62364 [============================>.] - ETA: 0s - loss: 0.7199 - categorical_accuracy: 0.4637
62100/62364 [============================>.] - ETA: 0s - loss: 0.7202 - categorical_accuracy: 0.4635Epoch 00157: val_loss did not improve

62364/62364 [==============================] - 7s 117us/step - loss: 0.7198 - categorical_accuracy: 0.4635 - val_loss: 0.7732 - val_categorical_accuracy: 0.4581
plotting training
Reloading best model
Saving history
_________________________________________________________________
Layer (type)                 Output Shape              Param #   
=================================================================
dense_4 (Dense)              (None, 200)               4400      
_________________________________________________________________
activation_4 (Activation)    (None, 200)               0         
_________________________________________________________________
alpha_dropout_3 (AlphaDropou (None, 200)               0         
_________________________________________________________________
dense_5 (Dense)              (None, 200)               40200     
_________________________________________________________________
activation_5 (Activation)    (None, 200)               0         
_________________________________________________________________
alpha_dropout_4 (AlphaDropou (None, 200)               0         
_________________________________________________________________
dense_6 (Dense)              (None, 4)                 804       
_________________________________________________________________
activation_6 (Activation)    (None, 4)                 0         
=================================================================
Total params: 45,404
Trainable params: 45,404
Non-trainable params: 0
_________________________________________________________________
Train on 62654 samples, validate on 20885 samples
Epoch 1/100000

  100/62654 [..............................] - ETA: 11:18 - loss: 4.6417 - categorical_accuracy: 0.2600
  600/62654 [..............................] - ETA: 1:57 - loss: 4.4059 - categorical_accuracy: 0.2833 
…
