…
[1;32mLoading:[0m  TTJ_anti                                 tt-NOMINAL_ntuple_TT.root
Entries in DF before modification: 2340
[1;32mLoading:[0m  VVL_anti                                 tt-NOMINAL_ntuple_VV.root
Entries in DF before modification: 69
Combining for fraction training
Time Diff: 
83.4489278793
Handling data for training...
Using keras 2.1.1
Training new model
Loading Training set
debug target_names
0
tt
1
w
2
qcd
3
real
-1
none
_________________________________________________________________
Layer (type)                 Output Shape              Param #   
=================================================================
dense_1 (Dense)              (None, 200)               4400      
_________________________________________________________________
activation_1 (Activation)    (None, 200)               0         
_________________________________________________________________
alpha_dropout_1 (AlphaDropou (None, 200)               0         
_________________________________________________________________
dense_2 (Dense)              (None, 200)               40200     
_________________________________________________________________
activation_2 (Activation)    (None, 200)               0         
_________________________________________________________________
alpha_dropout_2 (AlphaDropou (None, 200)               0         
_________________________________________________________________
dense_3 (Dense)              (None, 4)                 804       
_________________________________________________________________
activation_3 (Activation)    (None, 4)                 0         
=================================================================
Total params: 45,404
Trainable params: 45,404
Non-trainable params: 0
_________________________________________________________________
Train on 28198 samples, validate on 9400 samples
Epoch 1/100000

  100/28198 [..............................] - ETA: 5:18 - loss: 8.2042 - categorical_accuracy: 0.2300
  500/28198 [..............................] - ETA: 1:05 - loss: 6.6019 - categorical_accuracy: 0.2840
…
